MNIST/Data/mnist_autoencoder_weights.pth (torch, 983660 bytes, 17 tensors)

encoder_conv.0.weight f4 [16, 1, 3, 3]
00000000: 2e91 c1bd 5adf 873d 70d2 53be 6f14 a8be
00000010: cd1f bfbe 041e 0c3e f23f ea3d 9ff5 8e3e
00000020: a7d0 423d 921b a2bd d1ac 74be 96b5 96be
00000030: 99f6 b2be 2f59 e8be 99fa ccbe e429 ddba
00000040: 582c e9bd 1e4b 8f3d e291 22be 93b7 96bd
00000050: 74b5 143e 4f22 793e e0e1 0a3e 5f9b 613e
00000060: df20 efbd 9715 893d 7cb5 9d3e 11e2 bebe
00000070: 7e86 7abe 203a 01be 85fb 31be 7ebc 773e
00000080: 479d 81be 1233 4dbe 3ea4 86be 1354 b1be
00000090: 5f99 3dbe f0f4 c63e 0285 e93d cbb2 903e
000000a0: bc82 7b3e 1595 85be c4b5 1fbc ee85 cbbe
000000b0: bfcf 08bf 2c36 88be efbe 6f3e f635 153e
000000c0: 1410 4dbe 9ab7 153e 9621 5a3e cd67 933e
000000d0: 3fe7 713e 8d16 ef3d 8338 773c 6d74 ecbe
000000e0: a0cd 40be 66b2 e9be d6e5 13bf c9d7 9dbe
000000f0: 925c 2dbe 9513 67be 16c4 c3be e58a be3d
00000100: f57b 853e b940 53bd 2a6d 753d 2d39 963e
00000110: 3cfe 8e3e f1f5 923e c088 1ebe 206b bfbc
00000120: f7e2 3a3e d3b9 8a3e 1eca ac3e 430d ad3e
00000130: de92 4f3e 8179 9cbe fedf a73d 7406 56be
00000140: 20e6 86be 5c6e ae3e d0bb 893e be98 bcbe
00000150: 23af b53d da2f 8d3c ee8f d8bd 0a0b afbd
00000160: d2ed 543e 67d0 25be 8c8b 193e 3730 013e
00000170: 1e45 4f3e bf85 cb3d cbe7 b4be 0160 94be
00000180: 7419 433e 5355 6a3d 729f 8cbe 969e 47be
00000190: a486 7e3e 233d 423e e8e5 5ebe f51b d7be
000001a0: 3965 e3be 4dd4 8dbe 3e01 f9be 2cd8 c2be
000001b0: 23bb 37bb f6dd c73c da01 2abe b14a 123e
000001c0: 30bb 75be da2e 473e 9845 7b3e b4fe b5be
000001d0: 5c56 26be 1202 e63d d0bc 7e3c 3a8c 073e
000001e0: 6a51 113e af45 9ebe 1b78 43be 924b 2d3e
000001f0: f574 e0be 8981 29be 5a0a 2abe f06e 59be
00000200: 09e6 bcbd 1409 95be 0db8 51be ebcf 343d
00000210: 59c0 8cbe 88b6 f0bd 1327 423e 257d d23b
00000220: 3000 023e f12e eabd 6f83 1fbd 36e3 e63e
00000230: 4520 263e b198 763d 71f9 ec3e da2e 963c
-0.09451519 0.06634398 -0.20685744 -0.3282809 -0.3732895 0.13683325 0.11437978 0.2792177
0.047562268 -0.07915415 -0.23894049 -0.29435414 -0.34953764 -0.45380542 -0.4003494 -0.0016873446
-0.11385411 0.06996749 -0.15875962 -0.07359233 0.14522344 0.24329494 0.13562727 0.22031926
-0.116761915 0.06693571 0.30802524 -0.3728185 -0.24465367 -0.12619829 -0.17381103 0.24192998
-0.25315306 -0.20039013 -0.26297182 -0.34634456 -0.18515538 0.38858747 0.11402322 0.28261408
0.2456159 -0.26090303 -0.009747926 -0.39750618 -0.53441995 -0.2660383 0.23412679 0.14571366
-0.20025665 0.1462082 0.21301875 0.2879013 0.2362337 0.11674223 0.015089157 -0.46182576
-0.1882844 -0.4564392 -0.57772577 -0.30828694 -0.16929844 -0.22566064 -0.3823554 0.09303836
0.26071134 -0.051575396 0.05991856 0.29340497 0.2792834 0.28703263 -0.15481853 -0.02336651
0.18250643 0.27094898 0.33747953 0.3379918 0.20270869 -0.3056145 0.0819702 -0.20900899
-0.26347446 0.34068573 0.26901102 -0.36835283 0.08871295 0.017234731 -0.105743274 -0.085470274
0.20793846 -0.1619278 0.14994639 0.12616049 0.2024121 0.099376194 -0.35333094 -0.28979495
0.19052678 0.057210278 -0.27465397 -0.1949409 0.24856049 0.18968634 -0.2176739 -0.42013517
-0.44413164 -0.27701035 -0.4863376 -0.3805555 -0.0028035126 0.024397831 -0.16602269 0.14286305
-0.23997188 0.19451466 0.24538267 -0.35545886 -0.16243881 0.11230864 0.015547946 0.13237086
0.14191213 -0.3091254 -0.19088785 0.16923359 -0.4383923 -0.1655332 -0.16605511 -0.21233726
-0.09223563 -0.2910849 -0.20480366 0.0441436 -0.274905 -0.11753565 0.18960218 0.00642361
0.12695384 -0.114347346 -0.038943704 0.45095223 0.16223247 0.06020421 0.4628406 0.018332887

encoder_conv.0.bias f4 [16]
00000000: a11e cabe d856 dcbd f4ff d43e 2f39 c03c
00000010: 3719 b5bd 8d6e b3bd da78 57be 1a0b 4ebe
00000020: 0002 083e e52c 803e c754 653e 5d7f 62be
00000030: 6f03 843e a4c8 cebe 5866 62bd 5b1e 9f3d
-0.39476493 -0.10758752 0.41601527 0.023464767 -0.088427 -0.0876132 -0.21042195 -0.20121422
0.13282013 0.25034252 0.22395621 -0.22118898 0.2578387 -0.40387452 -0.055273384 0.07769462

encoder_conv.2.weight f4 [32, 16, 3, 3]
00000000: 63ef 8c3c 1527 5ebd 697d 8ebd 1f26 a9bd
00000010: 9e0e 02be 8c16 0bb9 cae2 76bd 2832 79bd
00000020: 03f7 e0bd b6a0 af3d 3ac0 c4bc f8a1 b73d
00000030: 5529 1c3e 6e31 0bbe 8a2e 48bd 9f0c 483e
00000040: ebff f4bd caf3 8fbd 652f ed3d 1376 c7bc
00000050: ecf4 92bc 1ab6 bfbc 12ae d33d d4a8 5f3c
00000060: 7458 123d e692 6c3d a348 02bc f91a 373d
00000070: 8e58 0fbe cafe 033e 5ca4 443e 6f33 58bd
00000080: 434c 23bd efd6 1c3e 9f6b b3bd c614 80bd
00000090: 536d 15be 6fc6 e6bc 3086 dfbd 5b2b ddbd
000000a0: 19ef 82bd 5b05 363d 5bf7 42be 86ef f8bd
000000b0: 5f8a b2bd fd2b a73d b210 13bc 91a7 5c3d
000000c0: 556f 6f3d ea21 0a3c 4563 5dbd 832d 01bd
000000d0: 59c9 1a3d 50d9 45bd 9b3e 1dbc 5f62 1abe
000000e0: a208 133d 0167 a2bc 431f 05be df37 96bd
000000f0: 4026 8f3d 9448 68bc d800 c63b d712 f5bc
00000100: b805 89bd ce9a 8b3c 8f44 84bd d516 5ebc
00000110: 1799 23bd fc23 083c 0be7 83bc de5c 413d
00000120: 790a 4dbc b409 063e e809 413d 1ab3 7fbd
00000130: 3fab 8f3d 5f91 18bd 43a7 d2bc 92d4 86bb
00000140: fcfd a1bb 20f4 ae3d eaf1 0c3d a94f 153c
00000150: 733b 1cbc 36e1 d9bb fd2a b83d d1b6 4cbd
00000160: 5269 97bc 54a5 513c 38c4 69bd c113 2e3d
00000170: d8b4 cd3d cdd5 c9bc dd56 96bd c1b0 933c
00000180: 026c c5bd f33d 043d 4805 77b9 fd7b 5cbd
00000190: 4d08 5dbe 26b6 463d 5409 1e3e 69ac cfbd
000001a0: 573e c63a 567e 753d 0b14 23bd 1f9c 253d
000001b0: 9f41 4b3d bbbd 2d3d f806 433d 659e b6bc
000001c0: 8373 5dbd 017b cb3d b80f 20bc a612 84bd
000001d0: 1f51 093e ce14 6abe d831 5bbe 8a95 5a3d
000001e0: 8846 1ebe 8cc3 99be 777f bdbd c1e2 6fbd
000001f0: b0e2 f8bd 8e10 f93c 46df 983d f78a 07bc
00000200: 6697 8c3c 6941 c43d c1d3 22be 2ce5 1bbc
00000210: 47e3 613e 6247 33bd 9768 ebbd e72c d3bc
00000220: 30ee f43d 5ab3 8dbd f0b4 343d 15e7 9f3c
00000230: a2e0 0bbd e1b2 013d 2591 b1bc 6399 993c
00000240: 2c14 61bd 2244 d7bd ac01 21bc b85f a9bc
00000250: 596c abbb d4ba f138 5759 d5bd 6bac 5b3d
00000260: c9fa aa3d a168 64bd 641b a63c 8e5a 7f3d
00000270: 5e14 99bd 4cf5 91b8 f188 8d3d 0bcc a1bc
00000280: 4308 c43c 9ba5 003d 559e 12bd c5b7 983c
00000290: d7a6 b33d 6c91 7f3d 85f1 0bbc 2fc7 2cbc
000002a0: e7c7 923c 1cfc 2fbc 8882 00bd d7a7 89bd
000002b0: 8bb1 cd3d 0f94 963d 1f13 44bd ee8f 753d
000002c0: 938d c73d be51 c53d 03f8 d03d 4b38 c93d
000002d0: 9724 4fbd f22e 8c3d be63 463e 0044 113e
000002e0: 7259 4ebc e897 703d da57 8f3c baa7 36be
000002f0: 3ced 2abe 7885 b6bc d815 1fbd 1ee1 893d
00000300: f31d c8bd 20ae 39bd 7c8c fcbc 81d3 b4bc
00000310: 073b 15bd 6604 b53d 2bbb d8bd ec29 b7bb
00000320: 9a34 8cbd feea fabd 59f0 81bd d552 a93d
00000330: f155 cc3c fca5 ab3d 74e1 993d 1293 0fbe
00000340: 62b6 98bd f14e 43bd 5dc1 03be 72d4 c9bc
00000350: 3502 15be 45fd 0dbe b507 22be fdb0 aebd
00000360: c3ad 8b3d f983 f73d 0b5f fb3d d5e6 b63d
00000370: 25dc 733d 3f9f 8ebd 189a d93c 8256 56bd
00000380: ee3d 8bbc 8c52 cc3d 629c 813d 0460 8e3d
00000390: 9e85 f2bb 6e60 5a3d e1a5 b03b e092 053d
000003a0: 2f70 95bd a6d5 60bd ab2c 1abd 1460 a13d
000003b0: 8bbe b93d ce47 083d 426a 9abc 0fda 9e3d
000003c0: 9892 a93d e9bd 583b 76a7 26bd 8217 df3c
000003d0: a10b 923b 8fd2 90bd 4e70 583d b70e 783d
000003e0: c6ac cdbc c0b0 9c3c f509 72bd 4cad 69bc
000003f0: dfdb ee3d 37dd 073d d621 47bd 737c 8c3b
0.017203992 -0.05423649 -0.06957514 -0.08259224 -0.12700889 -0.00013264472 -0.060274877 -0.06083885
-0.10984614 0.08575575 -0.024017442 0.0896644 0.15250142 -0.13593075 -0.048872508 0.19536065
-0.11962875 -0.07028921 0.115813054 -0.024348294 -0.017939053 -0.023402262 0.10335936 0.013651092
0.035728887 0.05775728 -0.007951888 0.044703458 -0.13998625 0.12890163 0.19203323 -0.052783426
-0.03986765 0.15316366 -0.087607615 -0.06253962 -0.14592485 -0.028170792 -0.10914266 -0.10799285
-0.063932605 0.0444387 -0.19039671 -0.121550605 -0.087177984 0.08162687 -0.008976148 0.05387074
0.058455784 0.008430937 -0.05404975 -0.031537544 0.037789676 -0.04830295 -0.009597446 -0.15076588
0.035896905 -0.019824507 -0.13000207 -0.07334875 0.069897175 -0.01417746 0.006042581 -0.02991621
-0.06690544 0.01704159 -0.06458389 -0.013555248 -0.03994092 0.008309361 -0.01610138 0.047207706
-0.012514704 0.13089639 0.047128588 -0.062426664 0.070150845 -0.03724801 -0.025714522 -0.004114696
-0.0049436074 0.08542657 0.034410395 0.009113231 -0.009535658 -0.0066491617 0.08992574 -0.049979035
-0.018482838 0.012795765 -0.057071894 0.042499308 0.10044259 -0.024638081 -0.073407866 0.018028619
-0.096397415 0.032285642 -0.00023557723 -0.053829182 -0.21585198 0.048513554 0.15433246 -0.101403065
0.001512478 0.059934936 -0.039814036 0.04043209 0.049623128 0.04241727 0.047614068 -0.022292325
-0.05406524 0.099355705 -0.009769373 -0.064488694 0.13409851 -0.22859499 -0.21405733 0.053365268
-0.15456593 -0.30032003 -0.092528276 -0.05856586 -0.12152612 0.030403402 0.07464461 -0.008272878
0.017162036 0.095827885 -0.1590109 -0.009515088 0.22059356 -0.043769248 -0.11494558 -0.025778247
0.11959493 -0.06918974 0.044117868 0.019519368 -0.034149773 0.031664733 -0.021675656 0.018749898
-0.054950878 -0.10511042 -0.009827059 -0.020675525 -0.005231422 0.00011526575 -0.10417431 0.053631227
0.08348615 -0.055763844 0.020276733 0.06234222 -0.07474588 -6.959829e-05 0.06910885 -0.019750616
0.02392972 0.031407934 -0.03579553 0.018642316 0.087720565 0.062394544 -0.008541469 -0.010545536
0.017917586 -0.01074126 -0.031374484 -0.06721466 0.10043629 0.07352459 -0.047869798 0.059951715
0.097438 0.09634732 0.102035545 0.0982519 -0.050572004 0.068448916 0.19373986 0.14186096
-0.012594568 0.05873862 0.017497946 -0.1783742 -0.1669206 -0.02228044 -0.03883919 0.06732391
-0.09771337 -0.045332074 -0.030828707 -0.02207351 -0.036433246 0.088387296 -0.105825745 -0.0055897143
-0.068459705 -0.122518525 -0.06344671 0.08267752 0.024943324 0.083812684 0.07513705 -0.14020947
-0.07456662 -0.047682706 -0.12866731 -0.024637435 -0.14551623 -0.13866146 -0.15823252 -0.085298516
0.06820252 0.12085719 0.122739874 0.089307465 0.059536118 -0.069639675 0.026562735 -0.052328594
-0.016997304 0.09976682 0.06328656 0.06951907 -0.0074011823 0.05331462 0.005390868 0.032610774
-0.07296788 -0.05489125 -0.037640255 0.078796536 0.09069546 0.033271603 -0.018849496 0.07756435
0.08279914 0.003307218 -0.040687047 0.02723289 0.0044569527 -0.07071411 0.052841477 0.06056091
-0.025106799 0.01912725 -0.059091527 -0.014262509 0.11663031 0.03316995 -0.048616253 0.0042872964

encoder_conv.2.bias f4 [32]
00000000: f4c5 633d 80fe 523d 0082 f73d be46 3d3c
00000010: 9459 443d dfb7 bd3d b1d7 01be 12c1 483d
00000020: b91c dc3d 67b6 d23d c036 c73d 2c5e 4c3d
00000030: de75 963d 8929 003d 40cb fa3d 5af2 613d
00000040: 1d45 24bd 151e 343d 6202 e03d 963d e83d
00000050: 4c53 dc3d 6585 ba3d 9525 d43d b716 48bd
00000060: 1da5 5c3d eba2 b13c adc0 cd3d 0be3 8bbd
00000070: c633 43bd b83a ff3c 4a7c 8f3d 1031 76bd
0.055608705 0.05151224 0.120853424 0.011552511 0.04793699 0.09263586 -0.12679936 0.04901225
0.10747666 0.10288697 0.097272396 0.049894497 0.073467 0.03128961 0.12245798 0.055162765
-0.040104974 0.043974 0.109379545 0.113398716 0.10758075 0.09107474 0.10358731 -0.048849788
0.0538684 0.02168413 0.100465156 -0.068304144 -0.047656797 0.031155929 0.07006128 -0.060105383

encoder_conv.4.weight f4 [64, 32, 3, 3]
00000000: ff80 7f3c 46d4 583c b8de 2fbd f7a6 90bc
00000010: 34d3 87bd 2667 e53d 096f 03bd 51aa b53d
00000020: 8bcc 883e f3b9 32bd 49e3 503d c46c 74bd
00000030: db65 153e db33 073d 61a6 963d 455d d03d
00000040: 1166 603d c8da 0f3e 1c7a ffbc d166 91bd
00000050: 4bc4 15bd de1d 993d 866a 0f3d 0466 b83c
00000060: 664b aebd b0cf 2e3e 1f1f 7d3e afd4 c03c
00000070: 864f 5cbd 90c3 34bc 813c e13c a428 163d
00000080: 7f37 4a3e 161d d9bd dd89 233e 9c54 2c3e
00000090: 7564 b9bd ca78 173d 6594 963d e89f 163e
000000a0: 82f1 fa3d 9fbc 09be 767a cdbc 693f 963d
000000b0: 344e 97bd af4e c93c 5c61 8c3d 0533 b9bb
000000c0: 5a41 323c 88f1 87bc a18e d13d fbb2 913d
000000d0: aa6e ed3d 0858 193e 9138 30bc f25c 02be
000000e0: 09df 943d 430e 43bd f2ad 663d c694 4dbe
000000f0: 376d 313c 1f0e 603d 01a8 41be f08d 35bd
00000100: 4482 e0bc b530 db3b a381 2abc 7d56 923d
00000110: 84ec 363e 7cc7 9c3d 1580 fa3d 72f2 023e
00000120: d3a2 fc3c 6472 9b3c 7a13 f1b8 4c8c f33c
00000130: e164 f93a ebfa 233d 6ce5 82bd 3c35 4f3d
00000140: 094d 693e 5c85 febc dcd8 d83a 250f 24bd
00000150: 8c23 e43d 1f41 0f3e a454 9b3d 46ad 813d
00000160: e8f0 683d 83c3 133e 5794 50bd 8200 38bd
00000170: 89d5 a43d 46ac c13d ca34 be3d ac87 3c3e
00000180: a1fe 7a3c 73ae ca3d 7798 073d 5e68 1fbd
00000190: 879e 583d 2bdf 903d e42b b13d 704f a33d
000001a0: 0203 093d f8a2 303d 6cdb a5bb 577a 303e
000001b0: d578 94ba 44c9 8a3d 5f75 efbd 983d 063d
000001c0: fde9 2dbc ec02 813c e129 12bd a8aa 11bd
000001d0: 528a 7b3d 635f 52bd ed5d f63c 478e ee3c
000001e0: 494a 7f3d 2a7d 89bd cfa5 573e 7e20 173d
000001f0: fc95 fd3d 3966 d93d 7e10 083d 1014 f63c
00000200: 1f0f 853d 6ea4 053e 56ef 903d 4fe6 b93d
00000210: 7006 143d 9e90 153e d375 433e 4e90 5cbd
00000220: d1fc 0a3c 5f7c 9fbd cef5 f43c 6e64 b63c
00000230: 3964 803e c5cc abbd 76f0 293e 7868 0f3e
00000240: 53ed 82bd ef00 7d3e 8b36 343d 55eb 87ba
00000250: 3bf9 ba3d b310 2bbe 4720 e23d 260c 62bd
00000260: 5951 f0bd 899c ef3d 550a 22bd c3dd ba3d
00000270: 31d7 083e 163f a9bd b41b b83e 2030 cd3d
00000280: ec6f ad3c e2fe 463b 2c05 adbd 8163 31bd
00000290: 937f 253d af5f 003b 84bd 5cbb bf14 d73d
000002a0: 299f 04bd 4e4c 003e 7a44 0b3e 4b2b c2bd
000002b0: 3903 c13d 2c72 68bd 41d6 a63c 8612 d2bc
000002c0: dd8e a5bd 5972 a33d 8a23 c5bd 818d 193e
000002d0: 4940 b7bc 6b83 003d 7dfd 1bbe 39c6 ed3d
000002e0: 8e6f 5a3d be3e c03d 9a4f edbc 99fc a43d
000002f0: 853a f23d de5d 15bd 8c6d f13c 962a 79bd
00000300: 210a 893d 8e8d c4bc 93c6 393e c571 c3bc
00000310: 08c0 833d aaa5 633d cfcc 963c 7ad6 c1bd
00000320: 5404 773d dce0 323d 5f62 debb de1e 813e
00000330: a461 2cbd a92d f73d 47bd 463d 7cc3 cbbd
00000340: 2c4a e73c 4a74 fa3d bb2e 6abd fbc0 c93d
00000350: 2fc5 2dbe 3e51 86bc a997 3ebd 5bd6 fabd
00000360: fa36 a9bc bfc6 ecbb 3bbd a23d f475 9f3d
00000370: 31f0 e3bc 9583 e53d 0a4d 983c 6fce f03d
00000380: 54de e73d e340 aa3c 33f3 b33d cb19 ab3d
00000390: a835 363e 26e1 153d 88a3 443c de6d 6a3d
000003a0: f814 86bb d701 b63c 7abd d9bc 3c05 10bd
000003b0: 098c 613d 2cae f6bb f779 5abd fa14 9a3e
000003c0: b4bd 1fbc 51a1 113e 2da1 163e 07b8 40bd
000003d0: bff2 453d ab14 44bd c7f9 703c fe14 963d
000003e0: 9e95 adbd 6516 4dbd 483d a8bd 8975 38be
000003f0: a735 8f3d ecc3 35bd db14 393e 1ad4 cc3d
0.01559472 0.013234204 -0.04293701 -0.01765774 -0.06632081 0.11201315 -0.032088313 0.08870376
0.26718554 -0.043634366 0.050998006 -0.05967404 0.14589636 0.033008438 0.07355953 0.1017404
0.054784838 0.14048302 -0.031186156 -0.07099689 -0.036564153 0.074764 0.035013698 0.022509582
-0.08510475 0.17071414 0.24718903 0.023538915 -0.053786777 -0.011032954 0.02749467 0.03665985
0.19747733 -0.10601251 0.1597056 0.16829151 -0.09052364 0.036980428 0.07352523 0.14709437
0.12253095 -0.1345086 -0.025082808 0.07336313 -0.07387963 0.024573652 0.06854507 -0.005651834
0.010879839 -0.016594663 0.102322824 0.07114216 0.11593373 0.14974988 -0.010755674 -0.12730768
0.07269103 -0.047621023 0.05631823 -0.20076284 0.0108292615 0.054700967 -0.18911745 -0.044324815
-0.027405865 0.006689156 -0.010406884 0.071454026 0.17863661 0.07655236 0.12231461 0.12787798
0.03083936 0.018975444 -0.00011495403 0.029729985 0.0019027257 0.040034216 -0.06391415 0.050587878
0.22783293 -0.03106945 0.0016544121 -0.040053505 0.111395925 0.13989685 0.07584503 0.063318774
0.05687037 0.1443005 -0.050922718 -0.04492236 0.08048541 0.09456687 0.092874125 0.1841113
0.015319497 0.09896555 0.033104386 -0.03891789 0.05288556 0.07073816 0.086509496 0.07974136
0.033450134 0.04312417 -0.0050615575 0.17234169 -0.0011327515 0.067766696 -0.11692309 0.032773584
-0.010614869 0.015748464 -0.03568447 -0.03556314 0.06141121 -0.0513605 0.030074084 0.029120577
0.062326703 -0.06713326 0.21059345 0.03689622 0.12382123 0.106152005 0.033218853 0.030038863
0.06497025 0.13051006 0.070769 0.09077131 0.03613895 0.14605948 0.19087915 -0.053848557
0.008483128 -0.07787394 0.029902365 0.022264685 0.25076464 -0.08388666 0.16595635 0.14004695
-0.06392922 0.24707387 0.04399733 -0.0010369817 0.09129568 -0.16705589 0.11041313 -0.055187367
-0.11734266 0.116997786 -0.039560635 0.09124329 0.13363339 -0.08263986 0.35958636 0.10018945
0.021171533 0.0030364324 -0.08448252 -0.043307785 0.040404867 0.0019588282 -0.0033682296 0.10502004
-0.03237835 0.12529108 0.1360034 -0.09480914 0.09424443 -0.056749508 0.020365836 -0.025643598
-0.0808389 0.079807945 -0.09625919 0.14995386 -0.02236952 0.03137533 -0.15233417 0.116100736
0.053329043 0.09386967 -0.028968621 0.08055992 0.11827568 -0.03646647 0.029471181 -0.06083163
0.06691385 -0.02399328 0.18142156 -0.02385796 0.064331114 0.05557791 0.018408207 -0.09464736
0.060306862 0.043671474 -0.006786629 0.25218862 -0.042085305 0.12069256 0.048520353 -0.09949395
0.02823361 0.12229212 -0.057173472 0.09851261 -0.16969751 -0.016396161 -0.046531353 -0.12247916
-0.020656098 -0.007225841 0.07946249 0.0778617 -0.027824493 0.11206738 0.018591423 0.11758124
0.113217026 0.020782894 0.08786621 0.08354529 0.17793906 0.03659167 0.0120018795 0.057233684
-0.004091855 0.022217674 -0.026579607 -0.035161242 0.05506519 -0.007528087 -0.05333897 0.3009413
-0.009749819 0.14221694 0.14709921 -0.047050502 0.048327204 -0.047871273 0.014707989 0.07328223
-0.08475803 -0.050070185 -0.082148135 -0.18013586 0.06992655 -0.0443763 0.18074362 0.10001393

encoder_conv.4.bias f4 [64]
00000000: 78de a73d acbc 813d 8cf3 c9bb e284 513d
00000010: f252 74bd fcee 143d 0391 bc3c e2b2 183d
00000020: 9aca 813c ef60 7c3d f236 ab3d ca35 b23b
00000030: 4be8 95bc 02a9 febb c05c 613d 19f8 b13d
00000040: 248c 803d 4260 0d3d da3d 7abd 916c 8b3d
00000050: 10a3 ccbb ea8f 423d 1551 203c dc17 b83c
00000060: c5ec 1a3d 3bfd 123d d565 863d 6dcd eb3b
00000070: 1a14 3c3c dbab d53c e580 e23c 53e9 ab3d
00000080: 8471 a83d 831c 493d 1414 443b 1299 613d
00000090: ef94 17ba a43d abbd d1e3 9a3d f7fb a53c
000000a0: 2794 e5bd 617e 8c3b 35c0 7fbc 0829 9d3d
000000b0: b726 2f3d f323 bb3c fe62 8f3d 970f 4a3d
000000c0: 43fd a43d 3243 78bd 82f3 f63c 779f b93d
000000d0: 5469 e53d 4968 ad3b ef21 5f3d e272 b33d
000000e0: d6df 97bb ef26 e4bd 7f10 4a3a 08af 8f3d
000000f0: a103 bc3d fdc1 113d db58 48bc 79fd 673d
0.081967294 0.063348144 -0.0061630663 0.051152118 -0.059649415 0.036360726 0.023018366 0.03727997
0.015843678 0.06161588 0.08360089 0.005438541 -0.018299242 -0.007771612 0.055020094 0.08689899
0.0627673 0.034515627 -0.061094142 0.06807817 -0.0062450245 0.04750053 0.009784956 0.022472315
0.037823457 0.03588603 0.06562392 0.0071961195 0.011479402 0.026082924 0.027649352 0.083941124
0.082247764 0.049099457 0.0029919194 0.05507762 -0.00057823857 -0.083613664 0.07562984 0.020261748
-0.112098984 0.0042875265 -0.015609791 0.07673842 0.04276153 0.02284429 0.07001303 0.049331274
0.08056118 -0.060610957 0.03014541 0.09063619 0.1120173 0.005291973 0.05447572 0.087621465
-0.0046348376 -0.111402385 0.00077081466 0.070158064 0.0918038 0.035585392 -0.012228216 0.056638215

fc_mu.weight f4 [64, 1024]
00000000: 46f8 70bb 85c9 693b dcec 01be 22e6 e0bc
00000010: a468 93bc 5456 263e 397c 3a3c 4218 e33a
00000020: 1124 74bd af59 6cbe a891 493a 1485 703d
00000030: 637f 1ebb 7b1d 6f3d 11bb c33d 1e2f adbc
00000040: 0b65 37bc 5931 86bc 4ed2 193c 11b1 b73d
00000050: 6329 7abc d386 ae3d a4de 6abd 1f07 0e3d
00000060: ee91 883b e633 a43d 236a 85bd 3b7c a4bd
00000070: 2086 b83d 846c ba3c 586e d73d 2559 823c
00000080: d622 a33b 0627 fdbc 6272 803d 5648 0fbe
00000090: 3e5e 1d3d afbe 9b3d 18bb 313c 52b7 b1bc
000000a0: 961a 96bd eb7e 8f3d 11fe fbbc 27d0 d83a
000000b0: 9160 d83b 1b51 323c 6b23 613e bc82 a9bd
000000c0: 63a7 f5bc 0d4e 97bd 12f5 a9bc 9115 683d
000000d0: fa8f 76bc 53d9 3a3c 83b2 debd 3c29 b23d
000000e0: 9502 55bd eaa4 013e 7e54 4f3d 25d2 6f3d
000000f0: 1a22 c13d cfd9 9abc 21c4 56bd 2ee3 92bd
00000100: 75f1 503d 4b05 04be d892 913b c8a4 f3bd
00000110: e923 453d 8ed5 d7bd ac1c 1bbc 89a3 13bd
00000120: 88be bb3d 1380 09be a944 8abd f72c 5e3d
00000130: 81b0 69bc 975d 293e 7fd5 523d 1e3b d83d
00000140: d7bd 243c af36 c33c 7607 e6bc b7f1 443d
00000150: 74bc 803b d542 cc3d 7459 de3d 60de 2c3d
00000160: c067 b13b d2a5 dbbd 60d5 3f3e ece0 5c3a
00000170: fade 45bd f13f 01bd 0ab2 8bbd 21aa 973d
00000180: 7f8a afbc 4386 49bc c0e9 97bd 4660 a53c
00000190: ec48 603d 196d 913d 6d95 fb3b 02a0 2f3d
000001a0: 442b 8abd 34bc af3c 2ded 493c 9b85 913d
000001b0: f623 7a3c da3f d7bc ccdc 37bc f08a 68bb
000001c0: bbe8 38bc 48e4 ccbd 9d55 973b 9528 6cbb
000001d0: 27c7 293d 9e34 f9bd 9ece 1fbe c5bd 94bc
000001e0: 454a 7bbd e9b8 593d bec1 5d3c 0651 acbd
000001f0: 14f6 abbc 0825 393d 71bf 9cbc d1cd ed3c
00000200: b5cf 12bd 9ca1 0e3c 93f3 de3c 9fae ab3c
00000210: 59b1 84bd a1e9 29be 53eb 22bc fae1 6e3d
00000220: b19e d43c 5871 a13b 8afb c83d a4b1 923d
00000230: 4582 4cbd 2ead dabd 8d7c 7d3d 86aa 303d
00000240: 8128 bbbc ea7b 3abd 7dd9 c53b 3b1c b53d
00000250: e692 ffbc de57 d93d f25e cb3c b126 f5bc
00000260: 55d8 c83b 366b 0f3d e184 a9bd 2aa9 2ebd
00000270: 6727 5a3b e3ca 373e 1c18 333c e0ab 20bd
00000280: ed2d 05bd 65e2 a8bc 2d6e 80bd 18f5 fcbd
00000290: b087 46bd 12fd a9bb ba8c 41bd 2449 8d3a
000002a0: 0158 943d f463 713d c005 c7bd 7e58 dcbd
000002b0: a344 10bd 40e7 47bd 1c55 383e cfe3 7bbd
000002c0: 1789 4abc 630f e0bd 186d cebb fd30 73be
000002d0: 1118 97bc f441 063d c886 2cbd a75a 42bd
000002e0: 63bc 823c d3c5 e03c 4d4e ddbb fab4 603d
000002f0: fccd a33d c64a d03d d631 1e3d 8331 1a3e
00000300: b702 8cbb 3c07 1f3d 89ba bcbd 1303 743d
00000310: bfdb 353c 3d90 ae3d 42d4 fabd 3c03 22bd
00000320: 53af a5bc 4d0c 703d 88c8 31be c732 88bd
00000330: 6f05 09bd 6978 ad3d 8758 323e 71e4 9cbd
00000340: 6dc0 d53c 8ce0 a0bd 0cb9 f93b ad3f 04be
00000350: 841a 423d b4c7 0e3d f9bc c23c fb54 903c
00000360: 046a d5bc ce0b e33d bf67 c4bc cf30 1d3d
00000370: 1cc6 a83c 37f7 173d 0cd2 fa3c 17d9 61bd
00000380: 8692 883b da02 4abd 96e1 bebd d41e 843c
00000390: 5751 efbc 2bbb f5bd 227e 8cbd 3040 04bd
000003a0: 571d 51bc bd03 aabc dc7d b93d b901 e2bc
000003b0: 814a aa3c 0ad4 183c 3c73 5ebd a451 de3d
000003c0: fdfc dd3b c04e bcbd 4b8e 963d 148f 10be
000003d0: 97ce 813d 6669 11bd 0639 bf3d 5a42 95bd
000003e0: c23c 23be 4fb7 723e 7fa3 9f3d 618a b43c
000003f0: 9b76 613d 26dc cdba f619 c83d b440 f83c
-0.0036769076 0.0035673094 -0.12688011 -0.027453486 -0.017994232 0.16243869 0.011382156 0.0017325955
-0.059604708 -0.23081087 0.0007689246 0.058720663 -0.0024184815 0.058377724 0.095571645 -0.021140631
-0.011193524 -0.016380953 0.009388519 0.089693196 -0.015268656 0.085218094 -0.057341233 0.03467476
0.004167787 0.08017711 -0.065143846 -0.080315076 0.09009957 0.022756822 0.10519093 0.015911648
0.004978518 -0.030902397 0.06271817 -0.13992438 0.038419954 0.076047294 0.010847829 -0.02169386
-0.073292896 0.070066296 -0.030760797 0.0016541526 0.0066033085 0.010883595 0.21986167 -0.08276889
-0.029987043 -0.07387934 -0.020746741 0.056661192 -0.015048975 0.011404353 -0.10873892 0.08699271
-0.052004416 0.12660566 0.050617687 0.05855002 0.094303325 -0.018902687 -0.052433137 -0.07172237
0.05101152 -0.12892644 0.004442554 -0.11896664 0.04812995 -0.10538779 -0.009467285 -0.03604463
0.091672 -0.13427763 -0.06751377 0.0542421 -0.014263273 0.16539608 0.051473137 0.10558151
0.010055027 0.023829786 -0.02807973 0.04808208 0.0039287154 0.09973685 0.108569056 0.04220426
0.0054139793 -0.10724987 0.1873374 0.000842585 -0.04830835 -0.03155512 -0.06821068 0.074054964
-0.021428345 -0.012300077 -0.07417631 0.020187508 0.054757044 0.07100887 0.007677725 0.042877205
-0.067465335 0.021452047 0.0123246135 0.07105561 0.015267363 -0.026275564 -0.011222076 -0.0035483204
-0.011285956 -0.10004479 0.00461836 -0.003603493 0.041449692 -0.12168239 -0.15606162 -0.018156895
-0.061350126 0.05315486 0.013534961 -0.084138915 -0.020991363 0.04520133 -0.019134255 0.029028805
-0.035842616 0.008705523 0.027215755 0.02095729 -0.06479139 -0.16593029 -0.009943801 0.058320977
0.025954576 0.0049268417 0.09813602 0.071627885 -0.049928922 -0.10677563 0.06188636 0.043131374
-0.022846462 -0.04552833 0.0060378895 0.08843275 -0.031197976 0.106124625 0.024825547 -0.029925676
0.0061293044 0.035014354 -0.08277298 -0.042641796 0.0033287646 0.17948489 0.010931041 -0.039226413
-0.0325145 -0.020615766 -0.06271014 -0.123514354 -0.048469245 -0.005187639 -0.047253348 0.0010779244
0.07243348 0.058933213 -0.097178936 -0.10759066 -0.035221707 -0.04880452 0.18001217 -0.061496552
-0.012361786 -0.10940435 -0.006299626 -0.23749156 -0.018444093 0.03277774 -0.042120725 -0.047449734
0.01595897 0.02743808 -0.006753719 0.054860093 0.07998273 0.10170512 0.038621746 0.1505795
-0.0042727846 0.03882526 -0.09215266 0.059573244 0.011099755 0.08523605 -0.12247516 -0.039553866
-0.020225203 0.05860548 -0.17361653 -0.0665031 -0.033452448 0.08470232 0.17416583 -0.07660759
0.026092732 -0.07855329 0.0076209363 -0.12914915 0.04738857 0.03485842 0.02377175 0.017618647
-0.026051529 0.11086236 -0.023975251 0.038376626 0.020602278 0.037100997 0.030617736 -0.055138674
0.0041678576 -0.049319126 -0.09320371 0.016127981 -0.02921359 -0.1199859 -0.068599954 -0.032287776
-0.012763343 -0.020753736 0.09057209 -0.027588712 0.02078748 0.009327898 -0.054309115 0.108554155
0.0067745433 -0.09194708 0.07351359 -0.1411708 0.06338232 -0.035500906 0.09337048 -0.07288046
-0.15941146 0.23702739 0.07794856 0.02203864 0.05504475 -0.0015705868 0.09770577 0.03030429

fc_mu.bias f4 [64]
00000000: 93ba 6bbd 834b 2b3c 2677 b7bd 4d4f c8bc
00000010: 6a85 b0bb 0d61 7f3d ac1d df3c c0ea 573d
00000020: fe77 29bd d03e f5bc ae9f 42bd a2d7 d93d
00000030: 7a6c 2b3b 9b56 38bc 67b0 cfbc a657 1bbd
00000040: 42c2 a63d bd19 b1bd dcdc 8fbc 0183 093d
00000050: 3093 c4bd 0517 99bd 967e ddbc 80d3 1e3d
00000060: 9192 923c 1660 973c 6bb0 43bd 5b59 5abd
00000070: 546f ad3a da2f 9fbd 86bf 94bc 2696 3cbd
00000080: 71a5 0ebd 8fca 35bd bf42 aebd 19f2 25bd
00000090: cf9d ab3c 4ca3 83bb 377d dbbc f8a5 313d
000000a0: 0bd6 c7bc c9de b53d 1417 133d 7350 fe3a
000000b0: 3ad1 6dbb 5769 6b3b fec4 beb8 941e 523d
000000c0: dfa1 a63d a3db fbbc b23f 31bd 2965 093d
000000d0: 159e 38bd 3c13 e6bc d86a 013d 8196 c93c
000000e0: 45d6 273d 5de9 943d 2ee9 1dbd 379b ddbb
000000f0: 3223 97bc 6694 9bbc af0a 9abb 47be 6c3d
-0.057550978 0.010455015 -0.08958273 -0.024451876 -0.005386998 0.062348414 0.027235828 0.05271411
-0.0413742 -0.029937178 -0.047515564 0.10636832 0.0026157186 -0.011251117 -0.02535267 -0.037925385
0.081425205 -0.08647487 -0.017561369 0.0335722 -0.09598386 -0.07475094 -0.0270379 0.03877592
0.017892154 0.018478435 -0.047775667 -0.053307872 0.0013232031 -0.07772799 -0.018157732 -0.04604163
-0.034825746 -0.044382628 -0.085088246 -0.040514085 0.020949272 -0.0040172692 -0.026793106 0.04337117
-0.024394056 0.088803835 0.03591068 0.0019402638 -0.0036288039 0.0035920942 -9.096599e-05 0.051298693
0.08136343 -0.03074438 -0.043273635 0.03354374 -0.045072634 -0.028085344 0.031596035 0.024607899
0.040975828 0.07271073 -0.038552456 -0.006762888 -0.0184494 -0.01899166 -0.0047009806 0.05779865

fc_logvar.weight f4 [64, 1024]
00000000: dbb0 6b3c 807b 2ebc 9755 c3bc dfe1 82bc
00000010: 0e46 623c b35d 963c b432 103d 8c95 333a
00000020: f8d3 9ebd 4e71 71bc f5d7 4c3c 96aa dfba
00000030: c61f 2dbd 849b de3b 02ea 973b 2ee7 a0bb
00000040: f695 4cbb 9be4 cabc 2a30 4cbb c6da 54bc
00000050: 175e e3bb bdd3 a1bb b816 b9bc bbe4 40bd
00000060: e8ea 293c 0429 a8bc cdc2 54bc 0c86 e3bc
00000070: 6e7b 08bc a95a 33bb d1bb 6fbc cff6 813c
00000080: 4672 efbb b41d 403b 2663 a0bc 2ae6 c63c
00000090: d8f3 813c 63b3 08bd e95e 5fbc bd19 033c
000000a0: 9efd f0bc e804 12bd c73b 6f3c e9ae d3bc
000000b0: 44f5 a8bc df4c 413c dda9 98bc b219 59bc
000000c0: 5d04 1ebb 75e2 2d3c 603b 17bd d2e2 02bc
000000d0: 5ca6 afbc 1055 fabc ca32 81bc aac3 2db9
000000e0: 9f9c ebbb 4b44 aa3a b83b ad3b c7d1 0dbd
000000f0: 8c6c 9bbc 8d68 47bd e49d 27bd 6a38 92bc
00000100: c667 89bb f744 b4bc 0478 413d 6aac f5bc
00000110: 0e03 b93c 5c48 c93c 436c 213d a13b 37bc
00000120: 59c2 3ebc 1cd0 c6bb aa33 3dbd 1f50 a9bc
00000130: d475 a7bc cb44 aa3c 9566 b7bc e570 033d
00000140: cd15 a1ba c136 f6bc 2eb5 29bd 7b46 873c
00000150: 4c34 f1bc 70c9 f7bc 67ec f53c c37a 1cbc
00000160: 9cf1 3bbc 5217 ae39 2055 19bd f39a 66bd
00000170: 628f d03a d829 00bc 2539 e43b 69f0 a2bb
00000180: 5f00 57bc 78cb 32bc 07cc cc39 0f80 9d39
00000190: 4b50 5a3c 3991 23bd b21e 443c 40e4 bfbb
000001a0: 5a47 393c c605 4d3c fee0 aabb 94de 57bc
000001b0: 1271 a2bc 2a9d 2b3a 96f7 13bd 5f73 5a3c
000001c0: 3f79 a6bc 77ea 063c de0d 133d 5570 873d
000001d0: 0382 debc 3c23 c5bc 409c ebbb 52d9 08bd
000001e0: a16c c1bc 0840 503b b54e a1bc 9260 83bd
000001f0: a173 18bd 735d 6bbd ff07 00bd 422e b8bc
00000200: b15a a33c e2cd d2bc 4d97 25bd 3cd7 0e3c
00000210: 6a22 11bd 47f5 f03b 7f40 c9bc 9110 59bc
00000220: a606 23bd abf8 78bc 0fe1 87bb 0a7c 173a
00000230: 0a5a 06bd 42f9 68bc 8fdd b93b f45e a3bc
00000240: ac34 24bc dab9 c8bc 5d61 25bd c2bd e53b
00000250: cdeb 703c 4c8d 043b 3c3c 23bc dd6e 3ebd
00000260: 9f29 6abc 7d13 283c 8a12 d2bc 442e 26bd
00000270: 38ec 94ba de00 3ebc 9fcf e1ba 3b45 39bc
00000280: b9dc 69bc eb5b b3bc b0a9 88bc 77ec 80bc
00000290: 47e1 253c 6760 ecbc 6d60 3fbc c9d2 3dbc
000002a0: a362 28bd 6443 33bc d958 9b3b 3872 d7bc
000002b0: 101b e9bc 8a72 b6bc 9c37 08bc cf0d 6dbc
000002c0: 77bb b2bc 25f5 943c 87cc b4bc afe8 8e3c
000002d0: 13ba b23b 9489 00bd ede5 2ebd 2b9e 0dbc
000002e0: e604 9fba 8800 77bc 0d4f 27bd 1043 483c
000002f0: ed7e 3fbd a859 e8ba e7ae b5bb ce88 e13c
00000300: 2847 b3bc 10b7 4a3c f169 8bbc 585b c2bb
00000310: a7c4 99bc 6e5e 32bd 9947 b43b 254c 50bd
00000320: 8ea6 bfbc 6d6e 743b eab3 82bc d47b ce3a
00000330: 283b 113c 02c1 6abc 9a32 413c cb86 0ebd
00000340: 3a00 8abc f7d5 82bc d9da 12bd 54b7 a4bc
00000350: 12e5 363c 0838 79bc 2d99 23bc 729e 9b3c
00000360: 9e51 6abb 2065 70bc f657 323b 30d8 6fbb
00000370: 1f50 d33c 26e6 a33c 7528 023c d336 273c
00000380: b721 b7bc ac32 a53b efa1 8a3c a29c 27bd
00000390: d322 1cbd 3f57 d5bc b134 6bbc 20c1 603b
000003a0: 1970 f9bc 3eea 34bd 729c f8bc dfcd 78bb
000003b0: 3996 f4bc 7a6d b4bc 5a7c 5f3c 2fbf 2cbd
000003c0: db8b 25bc 9e7a 1b3a 973a b83c c77d 39bd
000003d0: 3a58 483c 0fd0 38bc f0b0 433b f8df 8bbc
000003e0: c369 06bd 96f3 053c cb9e 7ebb 0bfa cebc
000003f0: 6ac1 05bd 96c4 e2bc f7a4 c53c bb0c 81bb
0.014385427 -0.010649562 -0.023844523 -0.015976844 0.013810648 0.018355226 0.035204604 0.00068505923
-0.077552736 -0.014736487 0.01250266 -0.0017064388 -0.04226663 0.0067934413 0.00463605 -0.0049103713
-0.0031217313 -0.02476721 -0.0031156638 -0.012991613 -0.0069387066 -0.0049385712 -0.022593841 -0.047093134
0.010370947 -0.02052737 -0.012985897 -0.02777388 -0.008330209 -0.002736727 -0.014632181 0.015864758
-0.0073073236 0.002931458 -0.019578528 0.024279673 0.015863344 -0.0333742 -0.013633468 0.008001742
-0.02941781 -0.03564921 0.014601654 -0.02584024 -0.020624764 0.011798113 -0.018635685 -0.013250755
-0.0024111487 0.010613074 -0.03692186 -0.0079886485 -0.021441631 -0.03055814 -0.015771288 -0.00016571456
-0.0071903015 0.0012990324 0.00528666 -0.034623887 -0.018972658 -0.04868369 -0.04092206 -0.017849166
-0.004193279 -0.022005541 0.047233596 -0.02998944 0.022584464 0.024570636 0.039409887 -0.01118365
-0.011643016 -0.006067289 -0.04619185 -0.020668088 -0.020441927 0.020784756 -0.022387782 0.032090086
-0.0012289822 -0.030055406 -0.041432552 0.0165131 -0.029443882 -0.03024742 0.030019952 -0.009550753
-0.011471178 0.0003320524 -0.037434697 -0.056300115 0.0015911872 -0.007822476 0.00696482 -0.004972507
-0.013122647 -0.010912769 0.00039061924 0.00030040785 0.013324807 -0.039933417 0.011970209 -0.005856067
0.011308515 0.0125135835 -0.0052148094 -0.013175625 -0.019829307 0.00065465516 -0.03612479 0.013333171
-0.020321487 0.008234612 0.035901897 0.066132225 -0.027161604 -0.024064653 -0.0071902573 -0.033410378
-0.023611369 0.0031776447 -0.01969085 -0.06414904 -0.037219647 -0.057462167 -0.031257626 -0.022482995
0.019940706 -0.025732938 -0.040427495 0.008718308 -0.03543321 0.007353458 -0.024566887 -0.013248579
-0.039801262 -0.015196006 -0.004146702 0.0005778676 -0.03280071 -0.014219584 0.005672164 -0.019942738
-0.010022324 -0.024502683 -0.040376056 0.0070111463 0.014704657 0.002022582 -0.009963091 -0.046492446
-0.01429215 0.010258553 -0.025643606 -0.040571466 -0.0011361903 -0.011596886 -0.0017228014 -0.01130801
-0.014273816 -0.021894416 -0.016682476 -0.015737755 0.010124511 -0.028854562 -0.011680705 -0.0115859
-0.041109692 -0.01094136 0.004740816 -0.026299581 -0.028455287 -0.022271413 -0.00831404 -0.014468624
-0.021817906 0.0181833 -0.022070182 0.017444937 0.0054543107 -0.031381205 -0.042699743 -0.008643667
-0.0012132197 -0.01507581 -0.040846873 0.01222302 -0.046751905 -0.0017726915 -0.0055445316 0.027531054
-0.021884516 0.012372747 -0.01701829 -0.005931299 -0.018770529 -0.043547086 0.005501699 -0.050853867
-0.02339485 0.0037297264 -0.01595493 0.0015753456 0.008864202 -0.014328243 0.0117918495 -0.034796517
-0.016845811 -0.015971167 -0.03585324 -0.020106949 0.011163013 -0.015211113 -0.00998525 0.018996451
-0.0035754214 -0.014672548 0.0027213073 -0.0036597364 0.02579504 0.020007204 0.007944216 0.010205942
-0.022354944 0.005041441 0.01692292 -0.04092086 -0.03811915 -0.026042579 -0.014355824 0.00342948
-0.03044896 -0.044168703 -0.030348036 -0.0037964506 -0.029856788 -0.022024859 0.013640488 -0.042174514
-0.010104145 0.0005931052 0.022488875 -0.045285966 0.012228066 -0.011280074 0.0029860102 -0.01707457
-0.032815706 0.008175751 -0.0038851972 -0.025265714 -0.032655157 -0.02768163 0.024126513 -0.003938285

fc_logvar.bias f4 [64]
00000000: c09f ecbc 9c43 f7bc 8659 c3ba 776f e63b
00000010: 74bc 433b 2626 dcbc 161d e7bc 0282 943c
00000020: 828c 6fbc 9a35 5bbb fa40 f7bc 5a25 293b
00000030: 62d1 873c b628 d3bb 4682 53bd 6ee2 31bb
00000040: b8c4 50bc 2ff6 0cbd 8d3f f6bc cd54 0ebd
00000050: 1353 7b3c ef09 52bc 069d 303c 2cfe 2ebc
00000060: b633 5d3c 16f1 22bc 2bd3 06bd 06d2 06bd
00000070: 857b e3bc 0171 1abd f37f da39 c834 b9bc
00000080: 3797 723c 54b0 28bd 4ddf 56bd 61ff 93bb
00000090: 987a 80ba bbff 3dbc ba1a 44bc eb89 1ebd
000000a0: c9a8 263b 1b50 993c 7bf7 debb 1a0b 0bbd
000000b0: 9aa4 17bd a1d4 02bc a9ed 01bc 9ce6 dcbc
000000c0: c9ea 1a3c cf26 fcbb 8010 17bd 2961 85bc
000000d0: d850 c3bc 1fc0 683b ef37 0bbd 519f 01bc
000000e0: e0a7 3ebc 928c 59bc 9193 e53a 99fc 00bd
000000f0: 543a 3dbd 7fe9 a1bc 2191 fbbc db05 dfbc
-0.028884768 -0.030183606 -0.0014903999 0.0070323306 0.0029866965 -0.02687366 -0.028212111 0.018128399
-0.014620902 -0.0033448697 -0.03018235 0.0025809617 0.016579334 -0.006444062 -0.05163791 -0.002714302
-0.012742214 -0.034414466 -0.0300596 -0.03474884 0.015339631 -0.012819751 0.010779625 -0.0106807165
0.013501098 -0.009945175 -0.03291623 -0.032915138 -0.02776886 -0.037705425 0.0004167553 -0.022608176
0.01480656 -0.041183785 -0.05245905 -0.0045165275 -0.0009802161 -0.011596615 -0.011969263 -0.038705748
0.0025430194 0.018714955 -0.0068044043 -0.033946134 -0.03702221 -0.007985265 -0.007930198 -0.026965432
0.009455391 -0.007695056 -0.03688097 -0.016281681 -0.02384226 0.0035514904 -0.03398889 -0.007911519
-0.011636704 -0.0132781435 0.0017515292 -0.031490896 -0.046198204 -0.01976466 -0.030708851 -0.027224472

decoder_input.weight f4 [1024, 64]
00000000: b276 9a3d a22e 03be e789 01be 675f f9bd
00000010: cc65 3a3d 514e 703c 49ab 2cbe eefb cebd
00000020: 917a 90bd bd0a c73d 6e1c 00bc 3383 483d
00000030: 3bd6 913d b2de 613c 61f5 9b3d f681 adbc
00000040: b80f b53d 2f5e b23d 9959 debd c00e 4b3a
00000050: fbf9 4ebd d640 00be 9226 8bbc 7e54 933d
00000060: 341a 463d 7407 413b f5b0 aebd 15d9 2cbc
00000070: 4200 a63d 670e 853c 3f39 103d c5a4 bc3d
00000080: 730d ff3d 341d eabb da10 023d 70d9 17bb
00000090: 90af 6abd 1e45 89bd 7c14 703b 320e 823d
000000a0: 2cf6 a4bd ceaa acbd fc02 763c 4e30 93bd
000000b0: d7c2 993d 6e5a cf3d 1351 98bd ae1c acbd
000000c0: 0e86 30bd 9b43 1b3e f14d 04be 8ab6 1dbd
000000d0: 33f6 6c3d d3fb bb3b 66c8 87bd 474e 0d3b
000000e0: 74b6 343d 9c24 b9bc c138 84bd 8e2d a33d
000000f0: 52e4 1fbe fc9a d7bd 4f98 f3bd 0366 dd3d
00000100: 1b1d 12bd 9d9d 08bd 0865 1cbe d4a3 9f3b
00000110: 9ae4 943d ed54 953d b19b 363d 40cb 28be
00000120: 747b 08be e1a5 b13d 8b90 b6bd 710e 38bc
00000130: a1d8 b6bd 6ac2 a83d fa21 303b 93af bc3b
00000140: 01f9 84bd 1ecd 16bd 6361 89bb 30cd c3bd
00000150: cfc1 0bba ec8b 7e3d b30a 0f3e 549b c03d
00000160: c8a0 02be 9714 dfbd bd4f 76bd a513 643d
00000170: fcb3 df3d 31fa 92bd c022 b33c cbb9 853d
00000180: cc2b 6f3b 4d3c 8bbd e301 31bd 0ffd 9ebd
00000190: 97e1 823c 60be d8bb 8cbd 363d 0af7 d2bd
000001a0: a836 df3d 1e2d 73bd 50a2 52bd 25ac b4bd
000001b0: f021 cbbc e9e6 543c a5cc 99bc 9ade 83bb
000001c0: e496 c4bb 5335 e33c f65d 0a39 df68 7dbd
000001d0: 66ba 033e 1c4c c2bc b983 22bd c758 e73d
000001e0: 72ad 2f3d 5de1 b03d 23dd 87bd 5821 0ebc
000001f0: cff8 44be df89 0ebe fe0b ae3d 9880 a63d
00000200: 6bde 1a3d 37e0 81bb b6a3 30be b24a 7f3d
00000210: 3543 693d a528 dc3d 89a8 44bd 311d aa3d
00000220: 82c0 30be 73e6 f3bd 2292 683d f3b7 fcbc
00000230: 2b96 8a3d fc3d f7bc 1e2a 123d cba5 4abe
00000240: 57b0 8e3d e1bd 9c3d 8669 073e 7019 503d
00000250: fb60 87be 2328 b1bd 9ca3 09be 4612 46bd
00000260: bbc4 dcbd 1c69 8ebd f33c c43d 530a db3d
00000270: 721a 7abd 0892 1d3d a8ed dcbd 2c58 cabd
00000280: 3266 e43d 57fc a0be 32c4 29be c6af 32bb
00000290: d506 c53c 05e7 27be 9c88 883d 8396 353e
000002a0: 192f 3ebe 56fb 5c3d 03d2 2dbe 1fb5 5abc
000002b0: 16a3 a3bd 0318 723b 9648 053e 0f66 de3d
000002c0: 35c7 d2bd 97e9 cc3d d60e fbbc 481b abbd
000002d0: d951 1fbe b40f 6bbd 87d8 6e3d 58b1 973c
000002e0: 556c d9bd 9de7 6dbd ed49 75bd ea37 903d
000002f0: 0da2 d3bd 4f8c 533d 3f88 47bd 33eb 86bd
00000300: f07e 883c 1726 033e 6b18 67bd 94ec f93c
00000310: 720a 333e ec42 153d 8715 9d3d 3149 403d
00000320: 52ad e53d fb8b 833c b41c 3fbd 5400 a33d
00000330: 6eea d4bd 308e 8abd 6ae4 fe3d 77cd 9a3d
00000340: f2af 22bc 8d99 7ebd 3fe6 81bc b27c 80bd
00000350: 12e2 fdbd a564 09bd bd8a c83d 6969 e1bd
00000360: 98d8 033d 4548 ba3d bc05 28be 5bd9 d6bd
00000370: 21de 613d 38cf f4bd daf2 0d3d 52dc 893d
00000380: 2718 bfbc b539 c03c 3c75 f0bc 719c afbc
00000390: e3b3 273e 7c6d dabd b91c f9bc 06b0 283d
000003a0: 8129 f33d 6e1f 18be ba62 5f3d 9f06 da3c
000003b0: a9c7 40bd e740 fdbc 932c d33c d527 26bd
000003c0: 3a8f 693d 8fd5 06be b939 25bd a475 953c
000003d0: 0c2c 6c3c d4b5 2bbe 4ae6 c53d 54a5 8c3b
000003e0: c413 91bc 10dd a93c 5ac6 06be 3aee f13c
000003f0: 8353 abbd e93a c7bd c06a d0bd 7d1b 3fbd
0.075421706 -0.12810758 -0.12650262 -0.121764 0.045507237 0.01466711 -0.16862215 -0.101066455
-0.07054628 0.09718845 -0.007819278 0.048953246 0.07120939 0.013786005 0.07615162 -0.021180134
0.08840889 0.0870937 -0.10856933 0.00077460334 -0.05053137 -0.12524733 -0.016986165 0.0719385
0.048364833 0.0029453905 -0.085298456 -0.010549803 0.08105518 0.01624222 0.035210844 0.09211115
0.12453737 -0.0071445946 0.031754352 -0.0023170374 -0.057296336 -0.06702636 0.0036633303 0.06350364
-0.08054766 -0.08431016 0.01501536 -0.07186948 0.07507866 0.1012467 -0.07437339 -0.08403908
-0.043096595 0.15162508 -0.12920357 -0.03850416 0.05785198 0.005736807 -0.0663002 0.002156155
0.044119313 -0.022600465 -0.064561374 0.07967673 -0.15614441 -0.10527608 -0.11894285 0.10810473
-0.03567229 -0.033353437 -0.15272915 0.0048718248 0.07270165 0.07291589 0.044582073 -0.16483784
-0.13328344 0.08674217 -0.08914288 -0.011233912 -0.089280374 0.082402065 0.002687572 0.0057582348
-0.06492806 -0.03681671 -0.0041925176 -0.09560621 -0.0005331309 0.06214516 0.13968925 0.094046265
-0.12756646 -0.10892599 -0.060134638 0.055682797 0.10923001 -0.071766265 0.021867156 0.06529578
0.003649461 -0.06798611 -0.04321469 -0.07763111 0.01597671 -0.0066144913 0.04461436 -0.10301025
0.10899097 -0.0593692 -0.051424325 -0.088218965 -0.024796456 0.012994506 -0.01877434 -0.004024339
-0.005999433 0.027735388 0.00013195709 -0.06186759 0.12864074 -0.023717932 -0.0396764 0.1129623
0.04289002 0.08636735 -0.06633975 -0.008674942 -0.19235538 -0.13919781 0.08498381 0.08129996
0.03780977 -0.003963496 -0.17249951 0.062327094 0.05694886 0.1074994 -0.04801229 0.08306349
-0.17260936 -0.11909189 0.056779988 -0.030849433 0.067669235 -0.030180924 0.035684697 -0.19789807
0.06967228 0.07653404 0.13223848 0.05080551 -0.26441178 -0.086502336 -0.13441318 -0.04835727
-0.10779711 -0.06953642 0.09581938 0.106953286 -0.061060376 0.038469344 -0.10787517 -0.09880099
0.11152305 -0.3144252 -0.16578749 -0.0027265414 0.02405111 -0.1639672 0.06666681 0.17733197
-0.18572654 0.05395063 -0.16974644 -0.013348847 -0.079900905 0.0036940582 0.1301597 0.1085931
-0.10291902 0.10005491 -0.030646723 -0.08354813 -0.15558566 -0.057388023 0.058311965 0.018517181
-0.10616366 -0.05808221 -0.059884954 0.07041915 -0.10333643 0.05164748 -0.04871392 -0.065878294
0.016662091 0.12807499 -0.05641977 0.030508317 0.17484453 0.036440775 0.07670122 0.0469448
0.11214699 0.016057959 -0.046658233 0.07959047 -0.103962764 -0.06765401 0.1244591 0.075587206
-0.009929644 -0.062158156 -0.01585686 -0.06273784 -0.12396635 -0.033543248 0.09792087 -0.110064335
0.03218898 0.090958156 -0.16408437 -0.10490676 0.05514348 -0.11953586 0.03465543 0.06731476
-0.023326946 0.023465017 -0.029352777 -0.021436902 0.16377215 -0.10665414 -0.030409204 0.041183494
0.118731506 -0.1485574 0.054537512 0.026614485 -0.04706541 -0.030914737 0.02577809 -0.04056533
0.057021357 -0.13167404 -0.04033825 0.018244572 0.0144147985 -0.1676858 0.09663065 0.0042921696
-0.01770962 0.020735294 -0.13161603 0.02953254 -0.08365538 -0.09728033 -0.10176611 -0.046657074

decoder_input.bias f4 [1024]
00000000: 9575 673d ba42 cabc 02a0 e3bc d459 78bd
00000010: cadc 9c3d 0593 063d 78e5 2d3e f6a1 6e3d
00000020: 294e 30bd e92f 15bd 5c38 f33d d712 2e3d
00000030: 194e 15bd b7c0 243e 886d 54bd 89b6 e2bc
00000040: a899 cf3d 0bed 09be 29de 61bd 8e4a 02be
00000050: 4991 783a 5061 d0bd 3f45 8ebd 3572 8fbd
00000060: 2976 e6bd 54ea b5bd 120e 42bd 30b6 c3bd
00000070: 3b4d c63d e955 39be a503 a13d 7605 adbb
00000080: cf63 11bd e90e 70bd 46da 773d 810b c73d
00000090: 991e dd3d cf08 8bbd 9b17 943d ddca 75bc
000000a0: 5cb5 00be d702 7b3a 7dd7 913d d394 e1bd
000000b0: acd3 c1bc f102 ed3d c1f2 e83d af48 f3bd
000000c0: 0982 ad3d 0831 fcbd d3fa 1abe af9f 3b3d
000000d0: 17db bf3b 5ea9 263e 78cb ff3d bfdd 03bd
000000e0: 6fb1 f43d fcb6 7cbd 0e01 093e afae 8c3d
000000f0: 99b9 873d 01dd 2abd 4150 d5bc 1191 653c
00000100: f045 ac3d b709 90bd 4e88 12be 7ee0 df3c
00000110: d0d1 313d b7da 1abe 3034 db3b 13ea 493d
00000120: 3707 153d 01f6 bf3d 4166 f9bb 6544 7fbd
00000130: c62a 863c e7f7 31bd 4ac6 793d 11a9 623d
00000140: db9e 27bd 1bf1 123e 2672 bcbd ccf3 9f3d
00000150: 85db b93d e8cc d0bd afdd 57bd 74b5 203d
00000160: cd5e c93d eb9c 4d3d b3ae 8d3b 1752 02be
00000170: f98d 8e3d 7080 da3c 1bf8 263d c829 953d
00000180: 8232 253c 0723 30bd a0d3 2cbc 809b 903d
00000190: f49d 293c 3628 a63d 8a76 1f3e 5592 f33d
000001a0: e947 ba3d fabf 5bbb 86e5 b43d d86f 4dbc
000001b0: 7688 cc3d e7b9 2b3c 1f1e d2bd d2fc cb3a
000001c0: 43c5 ac3d 47db 153e 6209 1a3e d7c4 143e
000001d0: 9cbe 36bd 1180 2d3a c40e 023e 1be8 b03d
000001e0: d324 dd3d 31ea 233e 077b 4c3d 7de2 073e
000001f0: 7250 e03d f769 d73c 6835 79bd 513d d83d
00000200: 668a 10be 1cf2 69bd ed59 4cbd 9cdd ebbd
00000210: 28a4 463d 528f 26be f593 0cbe 43f6 8ebd
00000220: 446e 01be 140f 383c 0cf8 8cbd f620 26be
00000230: 6e84 28be eafd 4fbe 76f9 613c d4cc cf3d
00000240: 9e29 c2bd ba2b 3f3d ab10 60bd 1822 27bd
00000250: 978b 7c3d aea8 22bd 09fa 2a3e 5427 b13d
00000260: 75e8 7d3d 9c89 043c 24ed bdbc ed81 25bd
00000270: f795 5a3c e229 d6bd 222c 1a3d 6b39 e0bd
00000280: 0f75 103b 4bf7 e6bd 04fa 08bd 2a72 49be
00000290: abfe cf3c 762c 02be 24e0 adbd f361 27be
000002a0: 5f05 f5bc 7cba 04be d141 73bc 0396 6f3a
000002b0: dcb6 b13d 91d6 3fbc 2c23 13be b9e8 45be
000002c0: bbb5 c1bd 6b9f 593c 8ca7 1fbc da13 20be
000002d0: 94f9 50bb f39f 88bd 3b12 02be aaff ba3d
000002e0: 7b5c f33d b271 12bc e2a1 80bd d730 80bd
000002f0: a2f7 073e e595 ecbd d4ad babd ad01 fabd
00000300: 9edd 9dbd d81e c6bd c5e7 16be 0807 44bd
00000310: 9a91 fcbd 0781 a8bc 31c0 cebd b3d7 2b3d
00000320: 688a f1bd 552b bcbd 3ab6 86bc ccf8 26bc
00000330: f2c2 583c a8b2 f7bd dc3a 07be 4b85 a8bd
00000340: a472 aabb 0c57 02be bc78 37be 5bca a1bd
00000350: cee0 4f3d b436 4dbe 5186 363d 7d7e 4abd
00000360: 0245 013e 0aae d4bc c8b3 653d 25d9 aa3d
00000370: ddbc 2a3d 8e6c b9bc 3c44 8c3d f9e3 acbd
00000380: 63e4 21bd 9ff9 9bbb c196 03be 2696 c0bd
00000390: a74d 01bc 7ab8 04bd 1c8c 753d 0215 aabd
000003a0: da56 523d 5af0 883b 15b5 5f3c 26ea 2abe
000003b0: f700 eabd 46f0 04bc 9e62 28be 2d15 17bd
000003c0: 534b e53d 5f82 57bd ae2d efbd 1fd8 cbbd
000003d0: 25a6 973d a166 b63c 193c 7bbd ae43 19be
000003e0: acf0 61bd 6746 d1bd 3dd0 afbc 999f 9e3d
000003f0: 6acc fd3c 35fa ca3d 181f 473c 8b90 933d
0.05650862 -0.02469002 -0.027786259 -0.06063254 0.076593 0.032855053 0.16982067 0.058259927
-0.04304329 -0.036422644 0.11875984 0.042498436 -0.036451433 0.1608914 -0.05186227 -0.02767493
0.101367295 -0.13469331 -0.05514351 -0.12723753 0.00094820984 -0.10174811 -0.069468014 -0.07004205
-0.11253006 -0.08882585 -0.0473767 -0.09556234 0.09682699 -0.18099178 0.07862023 -0.005280192
-0.035495576 -0.05860797 0.060510896 0.09718991 0.10796852 -0.067887895 0.07231065 -0.01500198
-0.12569183 0.00095753133 0.07121179 -0.11014714 -0.023660503 0.11572827 0.11374427 -0.11879098
0.08472068 -0.123140395 -0.15134744 0.045806583 0.005854975 0.16275546 0.124899805 -0.032193895
0.11947905 -0.061697945 0.13379309 0.06869256 0.06627197 -0.041714672 -0.026039245 0.014011637
0.08411777 -0.07033103 -0.14309809 0.027328726 0.043412983 -0.15122496 0.006689571 0.049295496
0.036383834 0.093730934 -0.0076110666 -0.062321085 0.016377818 -0.04344931 0.06098012 0.055337016
-0.04092298 0.14349787 -0.092014596 0.078101724 0.09075073 -0.10195333 -0.05270165 0.039235547
0.09832535 0.050198477 0.0043238043 -0.12726627 0.06960673 0.026672572 0.040763956 0.0728336
0.010082843 -0.043002155 -0.010548502 0.07060909 0.0103526 0.081131384 0.15572563 0.11893145
0.09095747 -0.0033531175 0.088328406 -0.012538873 0.09986965 0.010481334 -0.102596514 0.0015563017
0.08436062 0.14634429 0.15042642 0.14528213 -0.044615373 0.00066185097 0.12700945 0.086380206
0.10798039 0.16007306 0.049922016 0.13269992 0.10952844 0.026295645 -0.060841948 0.1055857
-0.14115295 -0.05711566 -0.049890447 -0.11516878 0.048496395 -0.1626561 -0.13728316 -0.069805644
-0.12639719 0.011234064 -0.06883249 -0.16223511 -0.16456768 -0.20311704 0.013792386 0.1014649
-0.09480594 0.04667256 -0.054703396 -0.040804 0.06165656 -0.039711647 0.16696943 0.08650079
0.061989266 0.008089449 -0.023184367 -0.04040711 0.0133414185 -0.10457207 0.037639745 -0.109484516
0.0022042429 -0.11277636 -0.03344156 -0.19672456 0.02538999 -0.12712273 -0.08490017 -0.16345958
-0.029909788 -0.12961763 -0.014847235 0.000913948 0.08677456 -0.011708871 -0.14368886 -0.19327058
-0.094584905 0.013282637 -0.009744536 -0.15632573 -0.0031887041 -0.06671133 -0.12702267 0.09130795
0.118828736 -0.00893824 -0.06280877 -0.062593155 0.13278058 -0.115520276 -0.09115186 -0.12207351
-0.07708286 -0.09673852 -0.1473685 -0.047858268 -0.12332459 -0.020569338 -0.10095251 0.041953754
-0.11793977 -0.091879524 -0.016444314 -0.010191154 0.013230072 -0.12094623 -0.13206047 -0.082285486
-0.0052016545 -0.12728518 -0.1791715 -0.07899924 0.0507515 -0.20040399 0.044561688 -0.049437035
0.1262398 -0.025961895 0.056079656 0.08342198 0.04168402 -0.02263477 0.06848952 -0.0844192
-0.039524447 -0.0047599818 -0.12850477 -0.094036385 -0.007892049 -0.032402493 0.05994807 -0.08304788
0.05135236 0.0041790428 0.013654013 -0.16690883 -0.11425965 -0.008113926 -0.1644387 -0.03688543
0.111960076 -0.052614566 -0.116786346 -0.09953331 0.074047364 0.022265734 -0.06133661 -0.14967224
-0.055161163 -0.10218506 -0.0214616 0.077452846 0.030981261 0.099110045 0.012153409 0.07205304
